models/model.ckpt (torch_old, 674358 bytes, 22 tensors)

conv1.weight f4 [12, 3, 3, 3]
-0.06349943 0.060193636 -0.00972708 -0.07320606 -0.0999802 0.05403701 -0.13959743 0.12833476
0.100432225 -0.0024952232 -0.18646182 -0.19151492 0.12180327 0.1440247 -0.035948683 0.13263258
0.0983272 0.06136696 -0.071230985 -0.094401136 0.117484905 -0.028765649 0.15640375 -0.12799329
0.18888097 -0.037294354 -0.14859195 0.061174084 -0.05764054 -0.14345342 -0.016698489 0.042513445
-0.09748486 -0.018801114 -0.19340599 0.083161704 0.054302417 -0.015285088 -0.056498628 -0.15326768
-0.15059038 -0.16570742 0.17075166 -0.072096676 0.14671676 -0.09761379 -0.0025727588 -0.1572184
-0.18495184 0.038645986 0.06983907 0.16414332 -0.19672717 -0.11975231 0.15303764 -0.16496111
-0.10908139 0.08356938 0.020155339 0.12644999 0.10728712 -0.106359966 -0.08887511 -0.07904769
-0.15034795 0.0640865 0.09887817 0.06597179 -0.15728629 -0.0098896045 0.10602875 -0.04228816
0.08137951 0.18182895 0.10703548 0.104470894 0.197881 -0.17374113 0.07539283 0.17287049
0.09839161 -0.12340607 -0.10967806 -0.18523882 0.09227125 0.075818434 -0.1583168 0.0025576074
-0.052428547 -0.04422895 0.08078817 0.11481713 -0.0945209 0.15208198 -0.08369291 0.10420105
-0.1120285 0.1876212 0.18605076 -0.040522527 -0.10196979 0.018798867 0.030189598 -0.091922924
-0.1480795 0.16245106 0.12542966 0.15085864 -0.027234962 0.043147486 -0.17671713 -0.06746602
0.12364396 -0.15160008 0.11246392 0.09057669 -0.024741672 0.004861609 -0.18267219 -0.17014328
0.10500222 -0.07721629 -0.029582817 -0.069424294 0.059549965 0.15940155 0.12068425 0.16559482
-0.15459159 -0.013245129 0.09589956 0.070462696 0.15200773 -0.16669208 -0.059406172 -0.017292174
0.06795463 -0.10660041 -0.073880896 -0.1799318 0.1476533 -0.005048213 0.12989785 -0.095871754
-0.11294257 0.059320033 -0.09765233 -0.09451237 0.1357687 0.02356437 -0.019612765 -0.2027997
0.07117038 -0.11157344 -0.110074095 -0.002976027 -0.13719253 0.13810325 0.07629264 -0.13219023
0.17817514 -0.14168175 0.17530112 0.027817221 -0.103979364 -0.012612191 -0.060165524 -0.14874925
-0.18607242 -0.027697755 -0.13039742 0.059720386 0.008849969 -0.19270168 -0.09593863 0.15599512
-0.0056164702 -0.0785984 0.13901484 0.038699154 0.094769634 -0.010123135 0.061011817 -0.15781681
-0.0100087635 -0.061963826 0.1381269 0.116549514 0.015219413 -0.14463453 0.1091944 -0.1533347
-0.053500544 0.1369654 0.014531858 0.10888289 0.08081812 0.07027386 -0.15505736 0.07673217
0.07840286 -0.124457665 -0.13512577 -0.1991429 -0.06454162 -0.19244981 0.063770354 -0.15375224
-0.11290416 0.08972932 -0.07180087 -0.12310847 -0.13440448 0.053545818 -0.04546177 -0.06334033
0.14317837 -0.017480088 -0.027827965 -0.16617545 0.13954735 0.09004759 -0.092245735 -0.023850229
-0.13369958 0.16483139 0.16364661 0.0665947 0.028739715 -0.03025445 0.112558745 -0.02473005
0.046068538 0.0104511 0.16796695 -0.080048904 -0.183134 0.042867493 0.16489606 0.07122897
0.08279851 0.1277384 -0.028885685 -0.1639692 0.17387205 -0.103836335 0.040510293 -0.061534118
0.15176062 -0.17150691 -0.16366655 -0.075722076 -0.09101032 -0.024752889 0.018924434 -0.04420491
00000000: fd0b 82bd 9a8d 763d 555e 1fbc 0fed 95bd
00000010: 6bc2 ccbd e955 5d3d a1f2 0ebe 306a 033e
00000020: 69af cd3d e686 23bb d9ef 3ebe 7d1c 44be
00000030: fe73 f93d 367b 133e ed3e 13bd d6d0 073e
00000040: c55f c93d ec5b 7b3d 8de1 91bd 6255 c1bd
00000050: ed9b f03d f0a5 ebbc 4e28 203e ac10 03be
00000060: 036a 413e f7c1 18bd 7d28 18be ad91 7a3d
00000070: 7d18 6cbd 74e5 12be 45cb 88bc 9422 2e3d
00000080: 24a6 c7bd cb04 9abc 380c 46be af50 aa3d
00000090: 366c 5e3d 4e6e 7abc 1b6b 67bd 34f2 1cbe
000000a0: 5d34 1abe 35af 29be 86d9 2e3e 6ca7 93bd
000000b0: eb3c 163e bde9 c7bd bb9b 28bb dcfd 20be
000000c0: 0464 3dbe 414b 1e3d c907 8f3d 3015 283e
000000d0: d972 49be b340 f5bd e6b5 1c3e 91eb 28be
000000e0: 1066 dfbd 6c26 ab3d cf1c a53c 1b7c 013e
000000f0: 59b9 db3d 41d3 d9bd 2704 b6bd c1e3 a1bd
00000100: d0f4 19be c83f 833d a380 ca3d 381c 873d
00000110: a80f 21be 0208 22bc 9a25 d93d 5a36 2dbd
00000120: 4daa a63d 5e31 3a3e 6b35 db3d d6f4 d53d
00000130: 51a1 4a3e 32e9 31be 8e67 9a3d f604 313e
00000140: 8a81 c93d 52bc fcbd e49e e0bd 3faf 3dbe
00000150: b6f8 bc3d b246 9b3d cd1d 22be 889d 273b
00000160: 51bf 56bd 6a29 35bd 4574 a53d 3e25 eb3d
00000170: 2c94 c1bd 61bb 1b3e 3067 abbd 5c67 d53d
00000180: 336f e5bd c61f 403e 1784 3e3e f3fa 25bd
00000190: 8ad5 d0bd 1500 9a3c 2d50 f73c 1642 bcbd
000001a0: 27a2 17be 9259 263e a270 003e b07a 1a3e
000001b0: db1b dfbc 6bbb 303d 56f5 34be a02b 8abd
000001c0: 0b39 fd3d 0d3d 1bbe 7c53 e63d 4680 b93d
000001d0: 0caf cabc 224e 9f3b 6b0e 3bbe 0a3a 2ebe
000001e0: 670b d73d 9323 9ebd aa57 f2bc 532e 8ebd
000001f0: aaea 733d 293a 233e 4e29 f73d b091 293e
00000200: 424d 1ebe 1902 59bc fd66 c43d bf4e 903d
00000210: eaa7 1b3e 54b1 2abe e353 73bd 51a8 8dbc
00000220: cc2b 8b3d 5151 dabd de4e 97bd 0b40 38be
00000230: 6d32 173e 7b6b a5bb f103 053e 6958 c4bd
00000240: 6f4e e7bd 90f9 723d f2fd c7bd b48f c1bd
00000250: f306 0b3e 110a c13c f3aa a0bc b9aa 4fbe
00000260: c7c1 913d 9e80 e4bd 876e e1bd 7309 43bb
00000270: 337c 0cbe f06a 0d3e 513f 9c3d e05c 07be
00000280: 8b73 363e 0515 11be 2382 333e f1e0 e33c
00000290: 22f3 d4bd 5da3 4ebc 2070 76bd b951 18be
000002a0: c589 3ebe 67e6 e2bc e786 05be 5d9d 743d
000002b0: 76ff 103c 9753 45be 797b c4bd 2fbd 1f3e
000002c0: 5e0a b8bb 33f8 a0bd e859 0e3e 0183 1e3d
000002d0: 9516 c23d 81db 25bc 87e7 793d bb9a 21be
000002e0: ccfb 23bc c8cd 7dbd 2371 0d3e 83b1 ee3d
000002f0: d85a 793c 131b 14be 50a1 df3d c603 1dbe
00000300: 6323 5bbd a840 0c3e 0817 6e3c fefd de3d
00000310: f883 a53d beeb 8f3d 5bc7 1ebe c225 9d3d
00000320: ae91 a03d a9e3 febd 695e 0abe 1eec 4bbe
00000330: 662e 84bd 9011 45be 089a 823d 3a71 1dbe
00000340: 4c3a e7bd 01c4 b73d 560c 93bd 4b20 fcbd
00000350: 54a1 09be dc52 5b3d 1f36 3abd 93b8 81bd
00000360: 5a9d 123e 6732 8fbc 79f7 e3bc e629 2abe
00000370: 80e5 0e3e df6a b83d 55eb bcbd 8e61 c3bc
00000380: 8be8 08be 8fc9 283e fa92 273e cd62 883d
00000390: 8d6f eb3c 2ed8 f7bc 3385 e63d ac96 cabc
000003a0: 5db2 3c3d 173b 2b3c 87ff 2b3e aef0 a3bd
000003b0: 7b87 3bbe d395 2f3d 83da 283e 7fe0 913d
000003c0: 4492 a93d dbcd 023e aca1 ecbc 8be7 27be
000003d0: 840b 323e 25a8 d4bd 1fee 253d 330b 7cbd
000003e0: 2367 1b3e 829f 2fbe 3498 27be 2d14 9bbd
000003f0: 9e63 babd 92c6 cabc 6a07 9b3c 3510 35bd

conv1.bias f4 [12]
-0.07440782 -0.17248186 0.07960641 -0.19779274 0.058467057 -0.01963713 -0.14141464 -0.18361218
0.12519334 0.046911813 0.012349536 -0.022677746
00000000: 2163 98bd 169f 30be af08 a33d 2e8a 4abe
00000010: 277b 6f3d 0cde a0bc 00cf 10be d504 3cbe
00000020: af32 003e 9a26 403d b555 4a3c aec6 b9bc

bn1.weight f4 [12]
1.0138991 0.9971102 0.9736712 1.007085 1.022466 1.0028373 0.9932645 1.007078
0.99256516 0.99567074 0.98273355 0.9911496
00000000: 72c7 813f 9d42 7f3f 8442 793f 29e8 803f
00000010: 2ae0 823f f95c 803f 9546 7e3f efe7 803f
00000020: c018 7e3f 47e4 7e3f 6d94 7b3f fbbb 7d3f

bn1.bias f4 [12]
0.01615203 -0.016348181 -0.01813569 0.01088025 0.01744602 0.005392583 -0.0062124375 -0.012162711
0.0013295162 -0.007108092 -0.0031756507 -0.0064566648
00000000: 4351 843c 9fec 85bc 4c91 94bc 1343 323c
00000010: f5ea 8e3c 44b4 b03b b491 cbbb 1b46 47bc
00000020: 2943 ae3a ffea e8bb 941e 50bb 6e92 d3bb

bn1.running_mean f4 [12]
-0.080916815 -0.38572654 0.14567718 -0.33324537 0.016863301 -0.12592603 -0.31481248 -0.24376564
0.1884059 -0.1696902 0.09704477 -0.27503183
00000000: b7b7 a5bd f37d c5be 662c 153e 239f aabe
00000010: e824 8a3c c1f2 00be 1a2f a1be b39d 79be
00000020: 7aed 403e 45c3 2dbe 69bf c63d f9d0 8cbe

bn1.running_var f4 [12]
0.00269616 0.10050977 0.061292753 0.013531096 0.0026938126 0.034045767 0.006678272 0.1189241
0.07074104 0.070212305 0.009390589 0.026495397
00000000: 0fb2 303b 11d8 cd3d 1c0e 7b3d 88b1 5d3c
00000010: ad8a 303b 9373 0b3d 68d5 da3b 7b8e f33d
00000020: aee0 903d 78cb 8f3d fcda 193c e00c d93c

conv2.weight f4 [24, 12, 3, 3]
-0.057455126 0.072067864 0.059026986 0.065799 -0.012974984 0.022489 0.058326617 0.021478418
0.03861442 0.06945902 -0.02972981 -0.046400126 -0.0025325129 -0.06536695 0.06599977 -0.08927712
-0.03377463 -0.043401275 0.053553574 -0.029451517 0.022611406 0.07760054 -0.0677226 -0.029712927
-0.0831467 0.06379627 0.047466986 -0.04194865 0.0427947 -0.055332813 -0.069148615 0.05290538
0.05644011 0.08592529 0.0861478 -0.024998873 0.07971673 0.07336191 -0.028779993 0.07689168
0.00043632925 -0.10052823 0.07637094 0.0374167 0.047414813 -0.03241148 -0.0117138345 0.059849933
0.02469189 0.010296932 -0.10660496 -0.009760959 0.03687469 0.009885794 -0.047803055 -0.088440605
-0.07148006 -0.082550004 -0.065197855 0.018999796 0.040588908 -0.08152655 0.064931974 -0.033164844
-0.07345077 -0.10939118 0.042643268 -0.011756022 -0.016345734 0.050886624 -0.0148453005 -0.07830665
-0.03918135 -0.018876527 -0.058310244 -0.037482087 0.031801593 -0.09752912 -0.03982104 -0.04886349
-0.07558061 0.0016902293 0.046036437 0.042013578 -0.024842469 0.022436509 -0.03923806 0.02513893
-0.0029555159 -0.020953355 0.08416644 -0.10410974 0.079530254 -0.0722946 0.030945672 0.06085426
-0.02190249 -0.063841105 -0.051813204 -0.08151307 0.063577145 0.050768293 -0.08032745 0.08891798
0.085006215 -0.06510904 -0.016742067 0.017604534 0.052995615 -0.029524533 -0.061536763 -0.0042870804
-0.09082959 0.05686851 0.06143616 0.064569965 -0.09153289 0.032000445 0.002819193 -0.028251145
0.057673253 -0.08700076 0.055795167 -0.086051516 -0.00788567 0.08818443 0.023092331 0.05769847
0.030111894 0.019048512 -0.0655506 0.018199237 -0.01089844 0.07821174 -0.018052304 -0.09840823
-0.025828859 0.08021127 -0.06264091 0.08114662 0.04253441 -0.083187416 0.04581554 0.011822581
0.0058475584 0.07679554 -0.03143711 -0.077588096 -0.08728194 -0.091485925 0.0063113333 -0.10062092
0.041051652 -0.05749468 -0.022776248 0.08919582 0.042133648 0.090330996 0.05221078 0.0069072125
-0.042004135 0.026144681 0.030705556 -0.05877885 0.033615217 -0.093418516 -0.065542094 0.006111664
0.09830237 -0.067119814 -0.08399269 0.058815196 0.095837735 -0.04839287 0.10272575 -0.018693268
0.092881575 0.019911617 0.0611525 0.051265363 0.012152253 -0.095389016 -0.066801846 0.0037551778
0.049242925 -0.069483094 -0.009593092 0.039891034 -0.033164248 0.097129114 0.0637959 0.03310621
-0.060366508 -0.03746606 0.068639316 -0.056821212 -0.046936966 -0.024897028 -0.09184153 0.09080277
-0.0083789155 0.00070340984 -0.05556294 -0.06176965 0.050411776 -0.08711888 -0.008399236 -0.0679194
-0.08677109 -0.016474726 -0.028477035 0.079471596 0.05063339 0.050751004 -0.020216146 0.06704021
0.08327234 -0.09020255 -0.04287427 0.06033521 0.08105845 -0.008796931 0.056319382 0.021173023
-0.060426548 -0.038872585 0.041844893 -0.027572058 -0.016209062 -0.003995515 -0.032733448 -0.08099854
0.09545059 0.046463672 0.08672076 0.058990657 0.06782842 -0.028474208 -0.03563111 0.035721324
0.027307838 -0.026579697 -0.059927404 -0.019904286 0.075435355 -0.032723203 0.07608978 0.06373959
0.065334894 0.05543989 0.09018876 0.00888037 0.017079147 -0.096885815 -0.0051655234 -0.041691292
00000000: 1156 6bbd 5198 933d 48c6 713d a0c1 863d
00000010: 0795 54bc da3a b83c e4e7 6e3d 82f3 af3c
00000020: 272a 1e3d 8840 8e3d ee8b f3bc 0f0e 3ebd
00000030: 84f8 25bb 1cdf 85bd e32a 873d ecd6 b6bd
00000040: 4457 0abd 89c5 31bd fe5a 5b3d 4f44 f1bc
00000050: 8e3b b93c 08ed 9e3d 26b2 8abd 8668 f3bc
00000060: d148 aabd 9ea7 823d be6c 423d 59d2 2bbd
00000070: 7f49 2f3d a9a4 62bd ca9d 8dbd 50b3 583d
00000080: bf2d 673d 99f9 af3d 426e b03d 70ca ccbc
00000090: 8642 a33d c53e 963d 05c4 ebbc 6379 9d3d
000000a0: 1fc3 e439 bfe1 cdbd 5e68 9c3d 4142 193d
000000b0: 0936 423d e6c1 04bd 62eb 3fbc 3425 753d
000000c0: a646 ca3c 77b4 283c b453 dabd 6eec 1fbc
000000d0: ea09 173d 06f8 213c 23cd 43bd 5920 b5bd
000000e0: 2364 92bd fa0f a9bd 7486 85bd 76a5 9b3c
000000f0: 8e40 263d 64f7 a6bd 0efb 843d dcd7 07bd
00000100: 5b6d 96bd 7c08 e0bd b5aa 2e3d 559c 40bc
00000110: 7de7 85bc 7e6e 503d b439 73bc 3d5f a0bd
00000120: a07c 20bd f2a2 9abc b9d6 6ebd d186 19bd
00000130: 6342 023d 59bd c7bd 631b 23bd 1525 48bd
00000140: 02ca 9abd af8a dd3a b490 3c3d 6e16 2c3d
00000150: 6f82 cbbc c5cc b73c 17b8 20bd 28f0 cd3c
00000160: 54b1 41bb 5fa6 abbc 745f ac3d 7d37 d5bd
00000170: c2e0 a23d 310f 94bd c781 fd3c 5142 793d
00000180: da6c b3bc 20bf 82bd 153a 54bd 53f0 a6bd
00000190: bc34 823d 6af2 4f3d b882 a4bd a11a b63d
000001a0: bd17 ae3d e357 85bd a926 89bc 6237 903c
000001b0: ee11 593d 6fdd f1bc f90d 7cbd a37a 8cbb
000001c0: dd04 babd f4ee 683d 7ca4 7b3d 423d 843d
000001d0: 9975 bbbd e612 033d 36c2 383b f26e e7bc
000001e0: ca3a 6c3d 742d b2bd 7989 643d c73b b0bd
000001f0: e632 01bc 0a9a b43d 212c bd3c 3b55 6c3d
00000200: 38ad f63c a00b 9c3c 653f 86bd 9116 953c
00000210: 5f8f 32bc 7a2d a03d 6de2 93bc 418a c9bd
00000220: 0b97 d3bc ce45 a43d e149 80bd 3330 a63d
00000230: 9038 2e3d 2a5e aabd 13a9 3b3d 80b3 413c
00000240: e09c bf3b fb46 9d3d 33c4 00bd 82e6 9ebd
00000250: e0c0 b2bd f95c bbbd 4dcf ce3b 5712 cebd
00000260: c725 283d 8b7f 6bbd 4195 babc 4cac b63d
00000270: 5594 2c3d 75ff b83d f9da 553d e655 e23b
00000280: 870c 2cbd 5f2d d63c 388a fb3c 17c2 70bd
00000290: 1cb0 093d 3552 bfbd ef3a 86bd 5b44 c83b
000002a0: c152 c93d 1d76 89bd 5c04 acbd 34e8 703d
000002b0: 9346 c43d 9a37 46bd e161 d23d a022 99bc
000002c0: b238 be3d b01d a33c 0b7b 7a3d a1fb 513d
000002d0: 3e1a 473c 515b c3bd 68cf 88bd 6e19 763b
000002e0: f3b2 493d 274d 8ebd 582c 1dbc c864 233d
000002f0: 3cd7 07bd a1eb c63d 6da7 823d 619a 073d
00000300: df42 77bd 0376 19bd c592 8c3d 5cbd 68bd
00000310: fa40 40bd daf4 cbbc 6917 bcbd cdf6 b93d
00000320: b847 09bc 0965 383a f795 63bd 2c02 7dbd
00000330: 947c 4e3d 626b b2bd f39c 09bc 5419 8bbd
00000340: 0bb5 b1bd 01f6 86bc ac48 e9bc 01c2 a23d
00000350: f564 4f3d 49e0 4f3d 559c a5bc 614c 893d
00000360: b08a aa3d 1dbc b8bd ee9c 2fbd 0e22 773d
00000370: f901 a63d 0121 10bc 27af 663d 0c73 ad3c
00000380: d481 77bd dc38 1fbd 8d65 2b3d ccde e1bc
00000390: dec8 84bc cfec 82bb 8213 06bd 90e2 a5bd
000003a0: 997b c33d b150 3e3d a79a b13d 30a0 713d
000003b0: a0e9 8a3d be42 e9bc edf1 11bd 8650 123d
000003c0: b0b4 df3c aabd d9bc 7076 75bd 500e a3bc
000003d0: da7d 9a3d c408 06bd f5d4 9b3d e789 823d
000003e0: 4dce 853d f014 633d e2b4 b83d f97e 113c
000003f0: 91e9 8b3c 126c c6bd 8d43 a9bb 7dc4 2abd

conv2.bias f4 [24]
-0.07789866 -0.01632308 0.043186113 -0.05143351 0.06602768 0.035786238 0.03684239 -0.030708851
0.05111887 0.08464791 0.038253315 0.03252044 0.038467433 0.031326443 -0.018115764 0.026364747
-0.014423105 -0.07258221 -0.06623922 0.065495975 -0.061346244 0.057747014 -0.054241646 0.014433019
00000000: 5589 9fbd fbb7 85bc ece3 303d f2ab 52bd
00000010: 8539 873d 9794 123d 0ce8 163d 2191 fbbc
00000020: 0562 513d e25b ad3d 82af 1c3d 2734 053d
00000030: 0790 1d3d 2850 003d 8367 94bc e2fa d73c
00000040: e34e 6cbc fba5 94bd 6ea8 87bd c122 863d
00000050: 3346 7bbd 2288 6c3d 7d2c 5ebd 7878 6c3c

bn2.weight f4 [24]
1.0013843 0.9937699 0.994571 1.0230099 0.98883575 0.96905273 1.0178378 0.997572
1.0187837 1.0159649 1.0023993 0.9843095 0.99526626 0.9976345 1.0006888 0.99763966
0.99861807 0.9956666 1.0054321 1.0081141 0.99830544 0.97858095 1.0133771 0.9929234
00000000: 5c2d 803f b467 7e3f 349c 7e3f fdf1 823f
00000010: 5724 7d3f d713 783f 8248 823f e160 7f3f
00000020: 8167 823f 230b 823f 9f4e 803f b5fb 7b3f
00000030: c5c9 7e3f f964 7f3f 9216 803f 5065 7f3f
00000040: 6fa5 7f3f 02e4 7e3f 00b2 803f e209 813f
00000050: f290 7f3f 4884 7a3f 57b6 813f 3a30 7e3f

bn2.bias f4 [24]
0.0053574555 0.0061687357 -0.005346312 0.0017383285 -0.0047994265 -0.020554239 0.0059763994 0.01033988
-0.00032324696 0.007286123 -0.005759843 -0.0073226914 -0.007220243 -0.0014595599 -0.009061214 -0.015255063
-0.0018325818 0.0033270465 0.004381535 -0.006070558 0.00036108363 -0.0064130253 -0.0036885168 -0.0024348951
00000000: 988d af3b 1b23 ca3b 1e30 afbb a0d8 e33a
00000010: 8244 9dbb 5d61 a8bc acd5 c33b 9a68 293c
00000020: 7979 a9b9 6ec0 ee3b 11bd bcbb 30f3 efbb
00000030: ca97 ecbb b44e bfba 7c75 14bc 5ff0 79bc
00000040: 3e33 f0ba 940a 5a3b fb92 8f3b 88eb c6bb
00000050: d34f bd39 5b24 d2bb 0bbb 71bb c392 1fbb

bn2.running_mean f4 [24]
-0.23713687 -0.009173107 0.4789774 -0.1195999 -0.09139924 0.025155563 0.11754025 -0.3536285
0.06185021 -0.14586316 0.06250384 0.22452947 0.057337735 -0.013764901 0.09782451 0.19013567
0.22093795 -0.6590361 -0.20179649 -0.03811087 -0.41565818 0.112507276 0.02095352 0.43222278
00000000: 02d4 72be cd4a 16bc 873c f53e cbf0 f4bd
00000010: 862f bbbd 0a13 ce3c f1b8 f03d cb0e b5be
00000020: a556 7d3d 275d 15be 0302 803d 0eeb 653e
00000030: f9da 6a3d 2e86 61bc 3758 c83d edb2 423e
00000040: 8f3d 623e 97b6 28bf bda3 4ebe 251a 1cbd
00000050: 26d1 d4be 376a e63d b7a6 ab3c 4e4c dd3e

bn2.running_var f4 [24]
0.11784745 0.08157229 0.16016689 0.03427976 0.04895814 0.31036004 0.09288359 0.1273866
0.03669044 0.06723018 0.19829902 0.073283784 0.10997937 0.114177115 0.08279023 0.25722098
0.07711847 0.15078945 0.18110411 0.12141601 0.29444543 0.2821307 0.14926986 0.2949309
00000000: 015a f13d 5f0f a73d ca02 243e ef68 0c3d
00000010: 5588 483d 83e7 9e3e c039 be3d a271 023e
00000020: b748 163d faaf 893d e60e 4b3e cf15 963d
00000030: dd3c e13d b1d5 e93d ed8d a93d 78b2 833e
00000040: 4af0 9d3d 8d68 1a3e 5b73 393e f5a8 f83d
00000050: 8dc1 963e 6f73 903e 33da 183e 2f01 973e

conv3.weight f4 [48, 24, 3, 3]
-0.0053795963 0.033700567 -0.013595125 0.010888343 0.053939104 -0.030237265 -0.0057129 -0.022344438
-0.005466325 -0.06520494 0.05500222 0.03631405 -0.067186214 -0.079112485 0.04341173 -0.015905412
0.050672673 -0.038127065 -0.04364359 -0.007904306 -0.041848455 -0.027122293 -0.022895962 -0.046290148
0.053219695 0.055255793 0.046269048 0.06639418 -0.0035568723 0.08065986 -0.033598926 0.010737301
0.015896227 0.051195886 0.057943985 0.03404744 0.028469652 -0.042148523 0.0002893897 -0.047221497
-0.057128403 0.045581706 -0.065692216 0.0112839 0.05655591 -0.047054972 0.005632598 0.017377248
-0.04633233 0.021971598 -0.03780454 -0.039140236 -0.00089284155 0.05185371 0.022729073 0.07479732
-0.02702765 -0.009292421 0.065968476 -0.04767954 0.025457978 0.017439524 -0.0074910745 0.04164511
0.017904704 0.06712688 0.049481247 -0.0033075071 -0.05217775 -0.0326485 -0.05871653 -0.00038938192
0.04965984 0.040265016 0.021640012 -0.012518239 -0.004940608 0.054370776 -0.0077103265 -0.058247525
0.03402458 -0.03503958 -0.016804552 0.020329084 0.043705516 0.007331343 0.08328415 0.01379178
-0.0053697187 0.05864784 -0.01817224 0.029876323 0.031183776 0.04916208 0.05872345 0.004997237
-0.041686513 -0.05984084 -0.059200294 0.030567883 -0.0047228644 -0.03643648 0.013712995 0.018673383
0.011827899 -0.028060079 0.057113744 0.06779955 -0.051867303 0.030544473 -0.032301955 0.030038642
0.0746905 -0.01833019 -0.03808443 0.02831495 0.041320246 0.042904254 -0.053552575 0.012954742
-0.07509655 0.0084796725 0.06508806 -0.059028104 0.015937937 -0.036808476 0.07920994 0.010883966
0.029802876 0.028180111 0.061701763 0.05141867 -0.00370707 0.034224708 -0.031772178 0.05768776
0.036993403 -0.011941667 0.0014593062 -0.027574511 0.0568592 -0.019744078 0.053495847 0.0612637
-0.0586758 -0.0034375598 -0.0023927828 -0.033979014 -0.0010746679 -0.006659437 0.036594614 0.04520446
0.036521334 0.04826577 -0.050246388 0.07474662 0.03520322 0.06352873 0.030256262 0.042212002
-0.041579746 0.051812455 -0.015516501 -0.01924232 -0.024933133 -0.07744272 0.049967017 -0.008297018
0.03201638 0.058524955 -0.042677887 -0.036956895 0.008427682 0.028560907 0.039885968 -0.07293379
-0.038210616 0.05082376 -0.02213285 -0.027793946 0.05542425 -0.06056236 0.037465997 0.036222324
0.037861414 0.04570005 0.036291778 -0.06136449 -0.056937695 0.07139813 0.0035733012 -0.004685692
-0.06590981 -0.04309095 0.051744055 0.029122876 0.055062268 -0.045287304 0.0479475 0.06663771
-0.051847138 -0.053707365 0.07644197 0.057567406 0.02909881 -0.042562272 -0.026153693 -0.018783571
-0.04528185 0.05367559 -0.057761274 -0.06259119 -0.013143504 -0.0071008466 0.05513906 -0.027282534
-0.03632521 -0.002624765 -0.0629071 -0.004199848 0.04330149 0.054980688 0.032105733 -0.0533165
0.041600153 0.060782794 -0.055004697 -0.00930008 0.06343385 -0.03154926 0.0018746236 -0.057376925
0.05996818 0.04630893 0.009123786 0.06965486 0.04272963 0.056630503 0.055411536 -0.06671717
-0.014717787 0.0008460575 -0.041134734 0.012187941 0.018657252 0.042357806 0.060250312 0.051016405
0.01632352 -0.010176502 -0.018980147 -0.0074627064 0.020496208 -0.043586396 0.061111964 -0.042985212
00000000: 5347 b0bb 9b09 0a3d 16be 5ebc 0565 323c
00000010: 40ef 5c3d 24b4 f7bc 4733 bbbb af0b b7bc
00000020: dc1e b3bb 2b8a 85bd 024a 613d 0bbe 143d
00000030: ed98 89bd ba05 a2bd 80d0 313d 114c 82bc
00000040: 268e 4f3d 202b 1cbd 9fc3 32bd 1081 01bc
00000050: 4969 2bbd 922f debc 5090 bbbc bd9a 3dbd
00000060: e5fc 593d e653 623d 9d84 3d3d acf9 873d
00000070: 6a1a 69bb ff30 a53d 079f 09bd 81eb 2f3c
00000080: ce38 823c c7b2 513d ac56 6d3d 5475 0b3d
00000090: 3039 e93c eea3 2cbd 3ab9 9739 546b 41bd
000000a0: 79ff 69bd e2b3 3a3d a489 86bd 1be0 383c
000000b0: 2ba7 673d b7bc 40bd a891 b83b bb5a 8e3c
000000c0: f8c6 3dbd c8fd b33c efd8 1abd 8351 20bd
000000d0: 950d 6aba 8e64 543d 5232 ba3c 562f 993d
000000e0: 1769 ddbc 3d3f 18bc 7b1a 873d 9f4b 43bd
000000f0: 408d d03c 55dd 8e3c b077 f5bb 1094 2a3d
00000100: e3ac 923c d179 893d d9ac 4a3d c3c2 58bb
00000110: 56b8 55bd 6fba 05bd bf80 70bd f525 ccb9
00000120: 1e68 4b3d eeec 243d 6546 b13c 4d19 4dbc
00000130: d3e4 a1bb e4b3 5e3d e8a6 fcbb f594 6ebd
00000140: 5c5d 0b3d aa85 0fbd b3a9 89bc 2e89 a63c
00000150: 8e04 333d c33b f03b e190 aa3d ebf6 613c
00000160: 77f4 afbb b838 703d f3dd 94bc 31bf f43c
00000170: 1e75 ff3c 2d5e 493d 0088 703d ddbf a33b
00000180: 7abf 2abd ab1b 75bd 027c 72bd 7f69 fa3c
00000190: 42c2 9abb 6b3e 15bd 78ac 603c ecf8 983c
000001a0: cec9 413c 40de e5bc 1af0 693d 7eda 8a3d
000001b0: cf72 54bd 6738 fa3c 0e4f 04bd 9913 f63c
000001c0: 55f7 983d 3229 96bc 6bfe 1bbd c1f4 e73c
000001d0: 6b3f 293d 5fbc 2f3d f259 5bbd 2040 543c
000001e0: 38cc 99bd 53ee 0a3c e44c 853d 74c7 71bd
000001f0: 4790 823c 7cc4 16bd d238 a23d aa52 323c
00000200: 2925 f43c fad9 e63c fdba 7c3d 629c 523d
00000210: 50f2 72bb 352f 0c3d 8b23 02bd 004a 6c3d
00000220: 6586 173d fba6 43bc 3146 bf3a f1e3 e1bc
00000230: 31e5 683d 55be a1bc 761e 5b3d a5ef 7a3d
00000240: 0956 70bd af48 61bb 3cd0 1cbb 942d 0bbd
00000250: dfdb 8cba 6837 dabb 3ce4 153d 5028 393d
00000260: 6597 153d 54b2 453d 28cf 4dbd c214 993d
00000270: 4031 103d 5a1b 823d fbdb f73c 7ee6 2c3d
00000280: 864f 2abd 4c39 543d ec38 7ebc 12a2 9dbc
00000290: 9240 ccbc 4a9a 9ebd 37aa 4c3d 37f0 07bc
000002a0: 9c23 033d ddb7 6f3d 02cf 2ebd 1d60 17bd
000002b0: 4314 0a3c 90f8 e93c 785f 233d 505e 95bd
000002c0: bc82 1cbd 932c 503d f34f b5bc 21b0 e3bc
000002d0: 8a04 633d 3d10 78bd f275 193d dc5d 143d
000002e0: 9214 1b3d fa2f 3b3d b0a6 143d 5559 7bbd
000002f0: 8037 69bd 2f39 923d 0c2e 6a3b 6f8a 99bb
00000300: b9fb 86bd 2380 30bd 93f1 533d 1993 ee3c
00000310: f988 613d 2e7f 39bd 9964 443d 5a79 883d
00000320: aa5d 54bd 41fc 5bbd 9c8d 9c3d cdcb 6b3d
00000330: a160 ee3c c755 2ebd 4540 d6bc 01e0 99bc
00000340: 7679 39bd efda 5b3d 1697 6cbd cf2f 80bd
00000350: da57 57bc 38ae e8bb 7fd9 613d 9f7f dfbc
00000360: bec9 14bd 4004 2cbb 70d5 80bd e19e 89bb
00000370: e75c 313d 6e33 613d 4d81 033d 6762 5abd
00000380: ec64 2a3d 61f7 783d 9b4c 61bd 5d5f 18bc
00000390: 9be9 813d cc39 01bd eeb5 f53a 1104 6bbd
000003a0: 32a1 753d 6fae 3d3d ef7b 153c 35a7 8e3d
000003b0: 4405 2f3d 63f5 673d 35f7 623d 03a3 88bd
000003c0: df22 71bc f5c9 5d3a e57c 28bd eeaf 473c
000003d0: 18d7 983c 617f 2d3d 08c9 763d 94f6 503d
000003e0: e7b8 853c 58bb 26bc 417c 9bbc b889 f4bb
000003f0: aae7 a73c a687 32bd 8a50 7a3d 4311 30bd

conv3.bias f4 [48]
0.0256647 0.03453725 0.02232524 0.015342818 -0.036536142 -0.0082895 -0.04657034 0.028268885
-0.0124213295 -0.025998035 -0.0347125 0.06133427 0.03201292 -0.05326784 -0.03361914 -0.06999842
-0.0541249 0.01582266 -0.06644969 0.018497633 -0.06314792 -0.03661403 0.020063104 -0.060135417
-0.050558098 -0.029288275 -0.054170053 0.018890943 0.05538589 0.016624395 0.06298013 0.042809136
-0.066131845 0.062278684 -0.058613043 -0.06695564 -0.03149017 -0.0359404 0.056827545 0.04082808
0.0027590727 0.045079827 0.017457608 -0.04434518 0.055274867 -0.009770569 -0.050010033 -0.05854443
00000000: c73e d23c ee76 0d3d 6ce3 b63c 7160 7b3c
00000010: eca6 15bd afd0 07bc 8ac0 3ebd 2694 e73c
00000020: d582 4bbc d5f9 d4bc b22e 0ebd a539 7b3d
00000030: fb1f 033d 612f 5abd 39b4 09bd 555b 8fbd
00000040: 12b2 5dbd 869e 813c c616 88bd 5988 973c
00000050: b253 81bd 98f8 15bd 615b a43c 8e50 76bd
00000060: 0216 4fbd f7ed efbc 6be1 5dbd 2ec1 9a3c
00000070: 51dc 623d e22f 883c bafb 803d a258 2f3d
00000080: 2270 87bd ef17 7f3d 3b14 70bd 0a20 89bd
00000090: d6fb 00bd 3e36 13bd 00c4 683d 583b 273d
000000a0: 8fd1 343b a0a5 383d 4203 8f3c 4ba3 35bd
000000b0: e667 623d bd14 20bc 52d7 4cbd 49cc 6fbd

bn3.weight f4 [48]
0.99242646 0.983704 0.9914443 0.9962643 0.9974055 0.9880014 0.9895999 0.9741594
0.9878403 0.9742019 1.0345734 1.0009111 0.99711967 0.9829116 0.9941156 0.9873641
0.9878888 0.97812915 0.98329085 0.9829592 0.9907237 0.9822336 0.9827628 1.0066854
1.0001395 0.9673751 0.9949115 0.98900455 1.0027086 0.9907624 0.9805495 0.9881637
0.98088515 0.99430555 0.9835231 0.9981441 0.9884283 0.989805 0.98360604 0.99320465
0.98741835 0.9902827 0.9704921 0.9906359 0.9677524 0.9892777 0.9827724 0.9892115
00000000: a90f 7e3f 06d4 7b3f 4bcf 7d3f 2d0b 7f3f
00000010: f855 7f3f a9ed 7c3f 6b56 7d3f 8362 793f
00000020: 1ae3 7c3f 4c65 793f e76c 843f db1d 803f
00000030: 3c43 7f3f 18a0 7b3f 5c7e 7e3f e5c3 7c3f
00000040: 48e6 7c3f ac66 7a3f f3b8 7b3f 37a3 7b3f
00000050: 12a0 7d3f a973 7b3f 5896 7b3f 11db 803f
00000060: 9204 803f e5a5 773f 85b2 7e3f 672f 7d3f
00000070: c158 803f 9ba2 7d3f 4b05 7b3f 4cf8 7c3f
00000080: 4a1b 7b3f cf8a 7e3f 2bc8 7b3f 5f86 7f3f
00000090: a309 7d3f dc63 7d3f 9bcd 7b3f a942 7e3f
000000a0: 73c7 7c3f 2b83 7d3f 2c72 783f 509a 7d3f
000000b0: 9fbe 773f 4e41 7d3f f996 7b3f f73c 7d3f

bn3.bias f4 [48]
-0.006571353 -0.01677591 -0.0076881526 -0.012604825 -0.012635219 -0.012735176 -0.011264169 -0.02520833
-0.009990362 -0.022778714 0.00977043 -0.0086110495 -0.010782368 -0.013738878 -0.012191146 -0.016664224
-0.016362095 -0.026698412 -0.013672549 -0.030240202 -0.0114065325 -0.016226336 -0.021236558 -0.009400219
-0.009986141 -0.032265514 -0.007150523 -0.014574862 -0.013570976 -0.014254289 -0.0132520525 -0.021608487
-0.016811518 -0.017401494 -0.016349692 -0.0152768325 -0.015656529 -0.010910852 -0.013500756 -0.009842554
-0.009544653 -0.017755557 -0.021703102 -0.011388407 -0.02993382 -0.014679996 -0.009405102 -0.015709968
00000000: 8154 d7bb a26d 89bc e6ec fbbb 7884 4ebc
00000010: f303 4fbc 33a7 50bc 598d 38bc b381 cebc
00000020: 9eae 23bc 6d9a babc 2714 203c 5c15 0dbc
00000030: 87a8 30bc 0819 61bc 5fbd 47bc 6983 88bc
00000040: cd09 86bc a1b6 dabc d402 60bc 4dba f7bc
00000050: 77e2 3abc 18ed 84bc 4af8 adbc 6003 1abc
00000060: e99c 23bc d828 04bd ef4e eabb 67cb 6ebc
00000070: cd58 5ebc d28a 69bc 231f 59bc 4804 b1bc
00000080: 4fb8 89bc 948d 8ebc caef 85bc ae4b 7abc
00000090: 1f42 80bc 6ec3 32bc 4632 5dbc aa42 21bc
000000a0: 2d61 1cbc 1a74 91bc b4ca b1bc 7196 3abc
000000b0: c537 f5bc 5e84 70bc db17 1abc 31b2 80bc

bn3.running_mean f4 [48]
0.495389 -0.08995478 0.39673617 -0.22805898 -0.2255562 0.3327709 0.003739579 -0.18992354
0.4067944 0.24944612 0.18507576 0.098804854 -0.16714993 0.089053676 -0.30610216 -0.2610224
0.10838862 -0.0046302867 -0.09692784 0.19378866 -0.19594495 0.8176112 0.0073006083 -0.35487092
-0.12906745 -0.25169805 0.17661184 0.089235745 0.19985563 -0.4820234 -0.12336065 -0.021168174
0.12654725 -0.05876381 0.5885561 0.16522098 0.06757007 -0.09132411 -0.39726546 0.109062426
0.23310438 0.07706421 -0.74849254 0.27173027 0.0175269 -0.054455217 0.35831907 -0.15509221
00000000: a1a3 fd3e 363a b8bd 0121 cb3e 4b88 69be
00000010: 34f8 66be f360 aa3e ba13 753b 517b 42be
00000020: 5b47 d03e ce6e 7f3e 8084 3d3e 335a ca3d
00000030: 5a29 2bbe c661 b63d 6cb9 9cbe baa4 85be
00000040: dafa dd3d a9b9 97bb 1a82 c6bd 8970 463e
00000050: cba5 48be f84e 513f f139 ef3b a4b1 b5be
00000060: 422a 04be 91de 80be bcd9 343e 3bc1 b63d
00000070: f4a6 4c3e c5cb f6be 82a4 fcbd e168 adbc
00000080: 9a95 013e 52b2 70bd 9dab 163f b02f 293e
00000090: 2d62 8a3d 2308 bbbd 6166 cbbe 1f5c df3d
000000a0: eab2 6e3e d7d3 9d3d 359d 3fbf 3b20 8b3e
000000b0: 9394 8f3c 6f0c 5fbd 9975 b73e 7ed0 1ebe

bn3.running_var f4 [48]
0.17618208 0.20271607 0.23464012 0.1605944 0.19892311 0.13211834 0.19310153 0.15366502
0.11033189 0.14913297 0.26119372 0.14569567 0.11905969 0.23737295 0.21493578 0.14816993
0.32770804 0.15683615 0.18110941 0.36173114 0.33538756 0.19848056 0.10952832 0.1832593
0.13351725 0.41986132 0.109426364 0.24538466 0.092386775 0.13802965 0.11870102 0.12605049
0.1477544 0.2077887 0.30182278 0.11556895 0.110731006 0.29197535 0.25909016 0.24215782
0.21517389 0.10206192 0.232131 0.24130057 0.083681986 0.18155053 0.21692976 0.31989527
00000000: 1369 343e cd94 4f3e 8045 703e dc72 243e
00000010: 80b2 4b3e 084a 073e 68bc 453e 5d5a 1d3e
00000020: b0f5 e13d 50b6 183e 2fbb 853e 3f31 153e
00000030: 91d5 f33d e511 733e 2018 5c3e dcb9 173e
00000040: 59c9 a73e a899 203e bf74 393e d334 b93e
00000050: ebb7 ab3e 7d3e 4b3e 6250 e03d 53a8 3b3e
00000060: bfb8 083e 10f8 d63e ee1a e03d 1e46 7b3e
00000070: 4735 bd3d a557 0d3e 8519 f33d 6113 013e
00000080: ee4c 173e 90c6 543e 8488 9a3e 6aaf ec3d
00000090: f0c6 e23d cb7d 953e 77a7 843e 38f8 773e
000000a0: 8b56 5c3e d705 d13d c0b3 6d3e 7f17 773e
000000b0: 7661 ab3d 62e8 393e d622 5e3e 50c9 a33e

fc1.weight f4 [128, 1200]
-0.011131953 -0.005386487 -0.02833425 0.02349473 0.022943227 -0.029520657 -0.02651954 -0.015544985
0.00791096 -0.007866389 -0.004134748 0.0068212403 -0.03157015 -0.035283726 0.009063839 -0.016241526
0.01630959 -0.018053135 0.017649697 -0.009121691 -0.004612269 0.0067009665 -0.033985764 0.006061076
0.0025658847 0.0069065704 -0.01671821 0.011014486 -0.016069353 -0.0023423547 -0.01720431 -0.026878716
-0.029973537 -0.023066977 -0.035567865 0.01405025 -0.016423779 -0.0017749027 0.0002863601 0.01383582
0.0015733711 -0.023401152 0.0017564779 0.0112957675 0.008616099 -0.02599715 0.00091976847 0.018513428
0.016241973 -0.016498135 -0.02232968 -0.033317134 -0.017330967 0.011191242 0.0026450965 -0.0019661153
-0.009764331 -0.01681983 -0.02763587 0.0046834224 0.0013330592 0.0055927625 -0.01916099 0.025279593
-0.0040367674 -0.018249802 -0.026959667 0.008168733 -0.018345797 -0.0044585145 -0.007604391 0.005483393
-0.026087804 0.01118398 -0.019438524 -0.031615976 -0.02430811 0.019692466 0.024670068 -0.014557788
-0.0003228646 -0.036157824 -0.03010692 0.0011089599 -0.008645769 -0.0015176913 -0.013811673 -0.035108108
-0.028640727 -0.02841952 -0.012920693 0.010674886 0.0014630074 0.018125314 -0.010992053 -0.0058972817
-0.009339366 -0.0017510293 -0.002458768 0.014360521 0.026153933 -0.015414727 -0.03354268 -0.007133494
-0.000617584 0.0064255986 0.00047569937 0.008955685 -0.009149272 -0.0017091458 0.024685945 0.007529394
-0.013972224 -0.036856893 -0.0068968213 -0.008134519 -0.008510078 0.015215638 -0.015469509 -0.0223389
0.0126787955 -0.021159396 0.020402664 0.00061373226 0.014471411 0.0025910886 -0.0002545821 -0.01883724
-0.012867629 -0.031858433 -0.029739028 0.0035779618 -0.0027242303 -0.031931322 -0.0095513845 0.0087421695
-0.010672808 -0.034082282 -0.01380536 -0.035937384 0.016319582 0.01360188 -0.033804048 -0.0028430796
0.0066224914 -0.022644324 -0.022004869 -0.011364094 0.016836356 -0.014500199 0.018266153 0.0142322965
-0.017211773 0.016769899 -0.014241081 -0.03583698 -0.0013059336 0.0030244293 -0.017603708 -0.001607701
-0.027147781 0.012673647 0.0056320243 -0.0030232084 0.023655629 -0.00844486 -0.02174897 -0.0050179693
0.002870141 -0.023836298 0.014779767 0.0074786027 0.01368144 0.022742953 -0.004434081 -0.0036482087
-0.016538667 -0.02355021 -0.028862357 -0.030788753 0.02216261 0.020205924 -0.0075268215 -0.016255977
0.012799556 -0.02026099 -0.009703892 0.010423534 -0.029265229 0.012978238 -0.037618067 -0.020416003
-0.026745029 0.025013672 -0.009997133 0.022816993 0.010316759 -0.031813927 -0.02567908 -0.010931279
-0.004629505 -0.032301445 -0.013599937 -0.015745437 -0.017148338 0.008421511 -0.03605756 -0.012292597
-0.01919697 -0.005777751 -0.003344523 -0.026499981 0.00038660236 -0.024574481 -0.012337852 0.012264831
-0.0136805745 0.002214403 -0.012803312 0.01089677 -0.02022075 -0.019923305 -0.010297381 -0.0026095433
-0.018824466 -0.021106267 -0.0019261469 0.023669347 -0.013211301 -0.0329884 -0.020595072 -0.02003635
-0.036808144 -0.0033053404 0.02283865 -0.030659102 -0.00021052049 0.0075564557 -0.021444475 0.007960845
-0.0076872106 -0.025423266 0.022823744 0.010415842 0.009727699 -0.0126016755 -0.0016635534 0.022172678
0.025487017 -0.0049805082 -0.02894384 -0.017488563 0.018768638 0.020583691 -0.024208605 -0.030619968
00000000: cc62 36bc 2181 b0bb 3b1d e8bc 0578 c03c
00000010: 6ff3 bb3c 4ed5 f1bc 823f d9bc 65b0 7ebc
00000020: f99c 013c 07e2 00bc c87c 87bb b684 df3b
00000030: b44f 01bd ab85 10bd 7f80 143c f30c 85bc
00000040: b09b 853c 2be4 93bc 1996 903c 2573 15bc
00000050: 8422 97bb c893 db3b a834 0bbd fe9b c63b
00000060: 6728 283b 8350 e23b a1f4 88bc 1a76 343c
00000070: e0a3 83bc 3182 19bb 0ef0 8cbc c130 dcbc
00000080: 108b f5bc f5f6 bcbc 9caf 11bd 0533 663c
00000090: 298b 86bc daa3 e8ba 9a22 9639 a3af 623c
000000a0: 9339 ce3a c6b3 bfbc 9e39 e63a e211 393c
000000b0: 8a2a 0d3c faf7 d4bc 9e1c 713a 79a9 973c
000000c0: e30d 853c 1927 87bc bcec b6bc 8c77 08bd
000000d0: acf9 8dbc 795b 373c 5b59 2d3b f1d9 00bb
000000e0: 93fa 1fbc bdc9 89bc 9f64 e2bc 6577 993b
000000f0: 0bba ae3a 7e43 b73b 82f7 9cbc 2617 cf3c
00000100: dc46 84bb 9c80 95bc 85da dcbc 26d6 053c
00000110: ed49 96bc bb18 92bb 412e f9bb 09ae b33b
00000120: 17b6 d5bc 033d 373c 8a3d 9fbc c17f 01bd
00000130: cd21 c7bc 1852 a13c e218 ca3c ca83 6ebc
00000140: 2746 a9b9 3a1a 14bd caa2 f6bc 855a 913a
00000150: fca6 0dbc 45ed c6ba 5b4a 62bc 85cd 0fbd
00000160: f59f eabc 0ed0 e8bc 50b1 53bc b8e5 2e3c
00000170: 62c2 bf3a 8a7b 943c 0318 34bc fc3d c1bb
00000180: 2404 19bc cb82 e5ba 4823 21bb 6448 6b3c
00000190: c640 d63c 0d8e 7cbc 0d64 09bd 16c0 e9bb
000001a0: 5ce5 21ba d48d d23b 4a67 f939 deba 123c
000001b0: d4e6 15bc 6b05 e0ba 2e3a ca3c 22b9 f63b
000001c0: c1eb 64bc 41f7 16bd bbfe e1bb a546 05bc
000001d0: db6d 0bbc 034b 793c d373 7dbc 1200 b7bc
000001e0: b9ba 4f3c 7856 adbc 7d23 a73c e0e2 203a
000001f0: 7f19 6d3c 41cf 293b 6e79 85b9 8e50 9abc
00000200: bfd2 52bc fd7d 02bd 439f f3bc 3d7c 6a3b
00000210: 0089 32bb 6bca 02bd 697d 1cbc 513b 0f3c
00000220: 00dd 2ebc dd99 0bbd e02f 62bc 1433 13bd
00000230: a5b0 853c 6bda 5e3c 1d76 0abd f652 3abb
00000240: 7c01 d93b 9780 b9bc 8e43 b4bc 7730 3abc
00000250: 66ec 893c 3e92 6dbc e6a2 953c 942e 693c
00000260: b4ff 8cbc 0761 893c 6c53 69bc ccc9 12bd
00000270: dc2b abba 8135 463b a735 90bc 7eb9 d2ba
00000280: 0665 debc 21a5 4f3c d88c b83b 0521 46bb
00000290: 73c9 c13c 4f5c 0abc e52a b2bc c76d a4bb
000002a0: fa18 3c3b 5744 c3bc d626 723c 110f f53b
000002b0: 1e28 603c 6e4f ba3c c44b 91bb c916 6fbb
000002c0: 197c 87bc 5fec c0bc c070 ecbc b238 fcbc
000002d0: 5d8e b53c e586 a53c 8ea3 f6bb 412b 85bc
000002e0: 3bb5 513c 60fa a5bc 13fd 1ebc 78c7 2a3c
000002f0: a2bd efbc ada2 543c 6715 1abd 763f a7bc
00000300: 6418 dbbc 79e9 cc3c 04cb 23bc b4ea ba3c
00000310: a007 293c 524f 02bd ef5c d2bc 1b19 33bc
00000320: 1ab3 97bb 854e 04bd 45d2 5ebc 93fc 80bc
00000330: ac7a 8cbc 61fa 093c 18b1 13bd e466 49bc
00000340: f742 9dbc 4a53 bdbb c92f 5bbb 7d16 d9bc
00000350: e4b0 ca39 6c50 c9bc b424 4abc 6ef2 483c
00000360: 7d24 60bc 841f 113b fcc4 51bc 5e88 323c
00000370: fca5 a5bc 3336 a3bc 59b6 28bc df04 2bbb
00000380: c435 9abc 0de7 acbc c476 fcba 38e6 c13c
00000390: 3674 58bc d81e 07bd ffb6 a8bc 4523 a4bc
000003a0: 23c4 16bd 699e 58bb 1f18 bb3c cc28 fbbc
000003b0: 2abf 5cb9 259c f73b 53ac afbc 346e 023c
000003c0: ffe4 fbbb 7444 d0bc dcf8 ba3c 35a7 2a3c
000003d0: ed60 1f3c 4277 4ebc 970b daba 7aa3 b53c
000003e0: 26ca d03c 8833 a3bb a21b edbc 2d44 8fbc
000003f0: b0c0 993c 219f a83c 2051 c6bc bad6 fabc

fc1.bias f4 [128]
-0.010047736 0.024052154 0.018166563 -0.009023766 0.031773563 -0.011373042 0.003076453 0.0055282325
-0.03162501 -0.0037618375 -0.025236275 0.012661041 0.0091499835 0.017501416 0.0125593655 -0.021509781
0.018419582 -0.017588902 0.01874025 0.026307214 0.013177423 -0.019808011 0.00574045 -0.0027484207
-0.026213337 0.014881705 -0.0039442847 -0.008497441 0.016728587 0.013249344 -0.00870687 0.01765138
-0.009428622 0.016092977 0.018440908 -0.016109686 -0.0049167126 0.008521148 0.013578309 -0.012031786
0.010265588 0.027293688 -0.019981468 -0.014276169 0.013503321 0.017030837 0.010135902 -0.020526657
-0.026090695 0.011457659 -0.01450895 0.0033906926 -0.031544853 -0.01032205 0.0012149044 -0.02189559
-0.00111854 0.010823258 0.0076349927 -0.012663572 -0.0034563285 0.003936344 0.019012472 0.013284228
-0.011737312 -0.008219065 -0.016060026 -0.0040494725 -0.030191122 -0.006695967 -0.01721706 -0.011367031
0.02717737 0.00555677 -0.013335982 -0.014381019 0.009398236 -0.012774414 -0.025785113 -0.013054889
0.010008068 0.0057982225 -0.0036026672 0.016047675 0.0053916126 0.014694881 -0.0070281536 -0.026984563
-0.0046861568 0.021701092 -0.031052712 -0.008557135 -0.016973866 0.01027943 0.032713063 -0.028224804
0.01263078 -0.03398751 -0.026352879 0.015783759 -0.008280901 -0.014458059 -0.011215102 0.021097574
-0.025049165 -0.034286406 0.02024771 -0.025691504 0.0021231286 0.013994988 -0.014598484 0.008086095
-0.0048685377 0.0067294575 0.015554543 0.016237583 -0.023631535 -0.014971169 -0.028627913 -0.0077493303
0.005144412 -0.030257668 0.02577541 -0.007065759 0.021673102 -0.034276325 -0.011008884 -0.029300353
00000000: 429f 24bc 0609 c53c 0bd2 943c 6bd8 13bc
00000010: ff24 023d ff55 3abc 519e 493b 2d26 b53b
00000020: 3a89 01bd 2989 76bb 4ebc cebc 4170 4f3c
00000030: d0e9 153c 215f 8f3c ccc5 4d3c 4835 b0bc
00000040: aae4 963c 9a16 90bc 2785 993c 3a82 d73c
00000050: 1ee6 573c 6944 a2bc 631a bc3b d91e 34bb
00000060: 5abd d6bc 65d2 733c 0f3f 81bb da38 0bbc
00000070: 640a 893c c713 593c 42a7 0ebc a099 903c
00000080: 827a 1abc 6bd5 833c 6311 973c 76f8 83bc
00000090: 601c a1bb 499c 0b3c 8e77 5e3c f820 45bc
000000a0: ff30 283c 0397 df3c 2db0 a3bc 98e6 69bc
000000b0: 093d 5d3c 4184 8b3c 0e11 263c 8527 a8bc
000000c0: 27bc d5bc e8b8 3b3c f2b6 6dbc 6236 5e3b
000000d0: 2d35 01bd d11d 29bc 6d3d 9f3a 615e b3bc
000000e0: f99b 92ba 0954 313c f62e fa3b df7a 4fbc
000000f0: 9283 62bb 72fc 803b 0bc0 9b3c 17a6 593c
00000100: db4d 40bc 42a9 06bc 5190 83bc 70b1 84bb
00000110: 5f53 f7bc d869 dbbb cb0a 8dbc c93c 3abc
00000120: 13a3 de3c 9115 b63b 2a7f 5abc 5e9e 6bbc
00000130: 0ffb 193c c74b 51bc 4d3b d3bc 2ce4 55bc
00000140: e1f8 233c 04ff bd3b ba1a 6cbb 6a76 833c
00000150: 20ac b03b ccc2 703c 6d4c e6bb bb0e ddbc
00000160: 558e 99bb 7dc6 b13c 4262 febc 3a33 0cbc
00000170: c70c 8bbc 0e6b 283c 22fe 053d b437 e7bc
00000180: 55f1 4e3c 7d36 0bbd fee1 d7bc f14c 813c
00000190: 9eac 07bc 7fe1 6cbc 8cbf 37bc d2d4 ac3c
000001a0: e833 cdbc e76f 0cbd 87de a53c fd76 d2bc
000001b0: 3024 0b3b 3c4b 653c 7b2e 6fbc 8a7b 043c
000001c0: 4188 9fbb c882 dc3b 7bd8 7e3c ae04 853c
000001d0: ec96 c1bc a249 75bc 1685 eabc 18ee fdbb
000001e0: 7592 a83b eede f7bc f426 d33c e287 e7bb
000001f0: ca8b b13c 5565 0cbd 9b5e 34bc 4b07 f0bc

fc2.weight f4 [2, 128]
-0.009407061 -0.06676447 0.026797976 -0.037155684 0.050466806 -0.04365939 0.05839475 -0.04117756
-0.068503246 0.06488726 -0.04661601 0.042219233 0.03251003 -0.027869439 0.05255724 -0.021204857
-0.058043364 0.008139956 0.07165396 -0.043571483 0.044319462 -0.009015625 0.02020252 -0.08696208
0.012438835 0.034679923 0.056013692 -0.020012213 0.07126597 0.076267414 -0.07731051 0.0112110255
0.023582252 -0.07520574 -0.021289572 -0.007743411 -0.07148708 0.008701629 0.036571212 -0.02613052
-0.063292645 0.028134746 -0.0032676223 0.02250961 0.020590989 -0.021922065 0.04464948 0.0791749
0.0039804988 0.08135146 0.009617408 0.037887633 0.059530392 -0.030064702 0.08028968 0.08323785
-0.0061893943 -0.059470326 0.071856365 0.030138904 0.07611223 0.09016266 0.061482713 0.036041543
-0.027490314 -0.05885258 -0.033918105 -0.0681781 -0.056435797 0.07139184 -0.040396016 0.074149616
0.0030749773 -0.0034948164 0.0381433 0.07718238 0.03282811 -0.082238235 0.02006256 0.040194467
-0.088242255 -0.001972808 0.04552048 0.01745439 -0.050237495 0.06428559 -0.008847455 -0.033870332
0.06471584 -0.043442883 0.06488449 -0.016382828 -0.00494372 0.06556932 -0.045708206 0.032002103
0.05654827 -0.07803689 0.039978724 0.016694559 0.053841777 0.018414551 -0.015426117 0.07502004
0.06322843 0.052923124 -0.005119195 -0.008433096 -0.039409548 0.064743586 0.06866894 -0.040375665
-0.007903211 0.043687537 0.02145998 -0.030873884 0.044177894 0.069503434 0.013040644 -0.07288455
-0.07762487 0.056447953 -0.07025565 0.010475084 -0.04752013 -0.026535338 0.07401094 0.06253872
-0.07447461 0.070438616 0.0841962 0.040255796 -0.062759414 0.03732176 -0.06422322 0.07122769
-0.054181073 0.008150088 0.00020924643 -0.0682324 -0.010127393 0.052766077 0.061408255 -0.07300905
0.06557769 0.020100117 0.076005995 0.045524094 0.07665332 -0.01414856 -0.020648299 0.017041452
0.012682264 0.06430652 -0.030326676 -0.027016198 0.022232221 -0.060750335 0.017411219 -0.05649046
0.07544705 -0.08164714 -0.0033743172 0.03959367 -0.05590642 0.03350535 -0.039868195 -0.06153297
0.0015869584 0.072193965 -0.08225479 0.021176469 0.0059258398 0.056996148 0.044422656 0.052633654
-0.04412727 0.073623724 0.004665069 0.082540385 -0.016452093 0.05147411 -0.06107319 0.075037725
0.038304865 0.0201326 -0.03650828 0.07608232 0.07134572 -0.056958284 0.04992846 0.04565334
0.0030111878 0.031711984 -0.06824134 0.0074945954 0.057885516 -0.013796368 0.039765753 -0.018047173
0.058294058 0.037240937 0.0071229856 -0.06173327 -0.0035824538 -0.046846967 -0.042177487 0.07876833
-0.086091414 -0.045156147 0.006019802 -0.055987217 -0.012706572 -0.062144827 -0.007367376 -0.071071476
-0.02678789 0.020448873 -0.061371937 0.0053157927 0.077622734 0.059974693 0.005157277 -0.04505568
0.011146029 -0.06879777 -0.07759964 0.022647085 0.049338214 0.021078762 -0.0010140513 -0.059723396
-0.022384984 0.0059566796 -0.07715833 0.07173164 -0.007494265 -0.057401754 -0.03516707 -0.0160775
0.009398306 0.038844403 -0.0012614114 0.007056664 -0.012407058 0.023639914 0.043604415 -0.046256404
-0.064752944 0.03256004 -0.0124242185 -0.04987699 -0.045930263 -0.0450787 0.05201334 -0.019707713
00000000: 1320 1abc cfbb 88bd 6e87 db3c 8f30 18bd
00000010: 48b6 4e3d 30d4 32bd 552f 6f3d cda9 28bd
00000020: 6e4b 8cbd 9de3 843d 6ef0 3ebd 13ee 2c3d
00000030: 3d29 053d 734e e4bc 4346 573d cfb5 adbc
00000040: e1be 6dbd 735d 053c 50bf 923d 0378 32bd
00000050: 5388 353d 46b6 13bc c17f a53c 2d19 b2bd
00000060: 41cc 4b3c 890c 0e3d 9d6e 653d a7f0 a3bc
00000070: e5f3 913d 1732 9c3d f954 9ebd 73ae 373c
00000080: 912f c13c 7805 9abd 7867 aebc 71bc fdbb
00000090: d167 92bd 4791 0e3c b2cb 153d ac0f d6bc
000000a0: 939f 81bd d77a e63c 9b25 56bb 1366 b83c
000000b0: 6fae a83c e795 b3bc 60e2 363d 7326 a23d
000000c0: d86e 823b 989b a63d 5592 1d3c 1030 1b3d
000000d0: 24d6 733d 404a f6bc ea6e a43d 9b78 aa3d
000000e0: 67d0 cabb 2897 73bd 6e29 933d dde5 f63c
000000f0: bbe0 9b3d 33a7 b83d 4cd5 7b3d 4ca0 133d
00000100: 5e33 e1bc 670f 71bd b6ed 0abd f6a0 8bbd
00000110: 3929 67bd e335 923d 4b76 25bd c1db 973d
00000120: 8f85 493b 4a09 65bb 263c 1c3d cc11 9e3d
00000130: c576 063d 856c a8bd 3d5a a43c f4a2 243d
00000140: 5bb8 b4bd 3a4a 01bb af73 3a3d 82fc 8e3c
00000150: d5c5 4dbd 2aa8 833d eaf4 10bc 9ebb 0abd
00000160: bd89 843d 2af1 31bd 29e2 843d 4835 86bc
00000170: eefe a1bb 3549 863d 8738 3bbd a314 033d
00000180: 299f 673d ced1 9fbd bbc0 233d 07c3 883c
00000190: 3289 5c3d 1dda 963c d3bd 7cbc 1ba4 993d
000001a0: e87d 813d ebc5 583d ecbe a7bb f82a 0abc
000001b0: e86b 21bd 4998 843d 4da2 8c3d f460 25bd
000001c0: 787c 01bc b4f1 323d d7cc af3c 3aeb fcbc
000001d0: e1f3 343d d157 8e3d 6da8 553c 7f44 95bd
000001e0: caf9 9ebd f835 673d 32e2 8fbd b09f 2b3c
000001f0: 78a4 42bd a360 d9bc 0c93 973d 4d14 803d
00000200: 2586 98bd 1f42 903d 0f6f ac3d 43e3 243d
00000210: 0288 80bd b4de 183d 7787 83bd d3df 913d
00000220: f9ec 5dbd f287 053c 2969 5b39 6ebd 8bbd
00000230: 5ded 25bc 3e21 583d 3987 7b3d c585 95bd
00000240: 994d 863d 00a9 a43c 08a9 9b3d 7977 3a3d
00000250: 6afc 9c3d 5dcf 67bc 9f26 a9bc 849a 8b3c
00000260: 45c9 4f3c 23b3 833d a66f f8bc 1351 ddbc
00000270: 5920 b63c 58d5 78bd f9a1 8e3c 8a62 67bd
00000280: fc83 9a3d 9e36 a7bd a623 5dbb f92c 223d
00000290: 21fe 64bd e83c 093d d54c 23bd ff09 7cbd
000002a0: 7d01 d03a 6eda 933d 3375 a8bd 467a ad3c
000002b0: 8c2d c23b cb74 693d 88f4 353d 6396 573d
000002c0: ccbe 34bd 09c8 963d 6fdd 983b ef0a a93d
000002d0: 8ac6 86bc 84d6 523d e227 7abd 61ad 993d
000002e0: 90e5 1c3d 1fed a43c b589 15bd 0cd1 9b3d
000002f0: b41d 923d 174d 69bd c981 4c3d fffe 3a3d
00000300: 5957 453b 6de4 013d 1ec2 8bbd 3995 f53b
00000310: 5d19 6d3d 290a 62bc 6ae1 223d aad7 93bc
00000320: c0c5 6e3d f489 183d ef67 e93b 06dc 7cbd
00000330: 9ac7 6abb 9be2 3fbd 4dc2 2cbd 4a51 a13d
00000340: b250 b0bd a7f5 38bd c241 c53b da52 65bd
00000350: 3a2f 50bc 938b 7ebd 076a f1bb ec8d 91bd
00000360: 4772 dbbc 6584 a73c 2461 7bbd 1a30 ae3b
00000370: abf8 9e3d 06a8 753d 60fe a83b 4e8c 38bd
00000380: d69d 363c d8e5 8cbd 8fec 9ebd 6186 b93c
00000390: de16 4a3d 5ead ac3c eae9 84ba 85a0 74bd
000003a0: b760 b7bc 4030 c33b 3005 9ebd 0ae8 923d
000003b0: 7492 f5bb 1a1e 6bbd 580b 10bd f6b4 83bc
000003c0: 5afb 193c 4f1b 1f3d f155 a5ba 973b e73b
000003d0: f946 4bbc 7ea8 c13c 8b9a 323d 5b77 3dbd
000003e0: 319d 84bd ad5d 053d f38e 4bbc d14b 4cbd
000003f0: 5f21 3cbd 71a4 38bd f10b 553d 1272 a1bc

fc2.bias f4 [2]
-0.031887744 -0.012206484
00000000: b99c 02bd b4fd 47bc
